python/torch/models/first_model.pth (torch, 5893 bytes, 5 tensors)

layers.0.weight f4 [30, 2]
000000 9b 1b b8 3e f7 2d b7 3e b0 98 26 3e 24 ac 90 3e
       0.3595856 0.35777256 0.16269183 0.28256333
000010 38 15 16 be 29 fb f2 be c0 d7 22 bf 43 9a 11 bf
       -0.14656532 -0.47457245 -0.6361046 -0.5687601
000020 07 00 0f 3f 12 4d b4 be e4 29 23 bd 21 7a 2e be
       0.55859417 -0.3521505 -0.039834872 -0.17038776
000030 16 00 c7 be e4 38 61 3e af 43 09 bf b1 b2 20 be
       -0.38867253 0.21994358 -0.536189 -0.15693165
000040 e1 e0 98 be f2 f3 0f bf 59 41 b4 be ce bb 02 bf
       -0.2985907 -0.56231606 -0.35206106 -0.5106782
000050 c6 8d 0e 3f 24 44 21 bf 78 33 44 3f b3 14 a1 3e
       0.5568508 -0.629946 0.76641035 0.31461105
000060 10 29 14 bf 6e 16 49 3f f3 46 80 3e 9d ad 97 3e
       -0.57875156 0.7854985 0.2505413 0.29624644
000070 34 6b 18 3f 58 da aa 3d 46 ba 0c 3f c9 d0 b0 be
       0.5953858 0.08342427 0.5497173 -0.3453429
000080 b9 ed c4 3e 48 a7 0d bf b3 78 c9 be 21 a4 1a bf
       0.38462618 -0.55333376 -0.393499 -0.6040669
000090 93 3d 2f 3f 2c 53 a4 be 80 99 39 3e b0 3c ad be
       0.6845333 -0.32094705 0.18124962 -0.33835363
0000a0 33 21 fc bd bc be 5b bd ee 6e 07 bf 33 21 32 3f
       -0.1231102 -0.053648695 -0.5290364 0.6958191
0000b0 d7 ae 33 bf a3 d8 4d 3e 26 39 0f bf ca 27 21 bf
       -0.7018866 0.20102172 -0.55946577 -0.6295134
0000c0 e0 d3 2f 3f 9e 93 07 3f 59 c7 cd 3e f0 23 10 bf
       0.6868267 0.5295962 0.40191153 -0.56304836
0000d0 12 d6 7e be 82 f7 1a bd ed 35 00 bd 6a 48 08 3f
       -0.24886349 -0.037833698 -0.031301428 0.53235495
0000e0 32 4c 8f 3e 27 90 5e 3e 2d b8 83 3e c2 25 8e be
       0.2798782 0.21734677 0.25726452 -0.27763182

layers.0.bias f4 [30]
000000 de 38 d9 bd 64 51 92 3d 19 49 76 3e ae 5f d3 3e
       -0.1060655 0.0714443 0.24051322 0.41283935
000010 e6 41 cc 3c d5 f8 b3 3e 1c 6a 06 be 9e e4 16 3f
       0.024933767 0.3515078 -0.13126415 0.5894259
000020 c8 18 f6 be 4c 89 3c 3e b1 cf 21 be 56 b7 49 3e
       -0.48065782 0.1841175 -0.15801884 0.19698843
000030 58 55 3f 3e 90 80 09 3f f1 69 86 bb 42 73 16 bf
       0.186849 0.53711796 -0.0041019847 -0.5876962
000040 ca 88 7d be fe 25 cb be 5a 3a be be ae 3d 01 3e
       -0.24759212 -0.39677423 -0.37153894 0.12621185
000050 52 24 c1 3d 0f 93 6c 3e f1 91 f8 be 00 73 01 bf
       0.09430756 0.23102973 -0.48548844 -0.505661
000060 97 5c 65 bd 1e 60 23 3f b0 24 26 3f 4b d8 f7 be
       -0.055996504 0.6381854 0.6489973 -0.48407206
000070 b5 26 b4 be 37 ad c6 bd
       -0.3518578 -0.09701007

layers.2.weight f4 [20, 30]
000000 e8 41 f5 bc 44 57 f4 3d c0 7b d2 3d 57 e8 d8 bd
       -0.029938653 0.11930707 0.1027751 -0.1059119
000010 05 9c 9e bd 67 66 0a be 14 e2 45 3d 56 f4 11 be
       -0.07744602 -0.13515626 0.048311308 -0.14253363
000020 4e 15 8a 3d c0 1e f5 3d f0 4d 9c bd b5 a5 9b bd
       0.06742345 0.11968756 -0.07632053 -0.075999655
000030 c4 7a 06 bd 9b ca cb bd 7e 10 29 be 6f d6 d4 bd
       -0.032831922 -0.09950753 -0.16510198 -0.103924625
000040 60 d0 ad bb 20 16 07 bd 84 70 f8 3d 8c bc 33 be
       -0.0053043813 -0.032980084 0.12130836 -0.17552394
000050 bc 1f a5 3d 6b 05 05 be 86 45 08 be 14 4b df 3d
       0.080626935 -0.12990348 -0.13307771 0.10902992
000060 74 c4 e8 3d e8 a4 ac 3c be 95 39 3e b0 7f 3e bc
       0.113655955 0.021074727 0.18123528 -0.011627123
000070 a0 e9 34 3e 64 ce b2 3d 19 5b 43 3e d7 2b 43 3d
       0.17667246 0.08730772 0.1907772 0.04764923
000080 90 8e 02 3e d3 78 84 bd aa 4d ff bd 30 2d 73 bd
       0.12749696 -0.06468358 -0.12465985 -0.059369266
000090 15 c6 09 3d bc f3 b9 bc b4 3e 9d 3d d9 16 30 be
       0.03363617 -0.02269923 0.07677975 -0.17196216
0000a0 bd b2 8c bd 87 82 de bd a5 84 48 3d 71 32 3b bd
       -0.06870029 -0.1086474 0.048954625 -0.0457024
0000b0 8c 19 0a 3d a4 32 e1 3d cc 34 e2 3d d4 3e 90 bd
       0.03371577 0.10995987 0.110452265 -0.070432335
0000c0 3e fa 2d be 68 08 4e bd 5a ad b4 3d 6e 6d b8 3d
       -0.16989991 -0.050300986 0.08822127 0.09005247
0000d0 96 66 c0 bc 90 1a 0e 3c b6 7e d3 3d 94 86 0b be
       -0.023486417 0.008673325 0.103269026 -0.13625556
0000e0 2a e5 1b 3e 9b 06 68 3d a7 88 f5 3d e2 94 85 3d
       0.15224138 0.056646924 0.11988955 0.06522538
0000f0 58 13 3c be 61 fb f2 bc f9 8c 8f bd e4 27 0f bd
       -0.18366754 -0.029660882 -0.0700931 -0.034950152
000100 b8 4c c2 3d 49 c1 9c 3c 5b d1 d2 bb 72 c3 21 3e
       0.09487289 0.019135134 -0.0064336485 0.15797213
000110 74 7e 41 3d 16 58 a0 bd a5 b8 67 bc a0 ca 23 3e
       0.047239736 -0.07829301 -0.014143144 0.15995264
000120 b4 b6 b5 3d bf cc f7 3d df cc c1 3b 33 01 d3 bc
       0.088727385 0.12099599 0.005914315 -0.025757408
000130 6f 43 c1 bd 64 f6 2d bd a6 f8 0e bd 44 9a 0d be
       -0.0943669 -0.042471305 -0.0349051 -0.13828379
000140 fb 64 d6 bd 01 34 47 3d e3 69 2e be 95 0c c1 bd
       -0.10468479 0.04863358 -0.1703258 -0.09426228
000150 4f 05 64 bc 88 43 14 3e 17 36 f5 3d 24 c6 7c bd
       -0.013917281 0.14478886 0.119732074 -0.0617124
000160 ff 07 e7 3d da e4 e9 3c f0 a7 f7 bc f0 1a f2 bd
       0.11280822 0.028551508 -0.030231446 -0.11821544
000170 68 3a 94 bc 34 3b ff bd 98 c9 97 bc 30 15 2f 3e
       -0.018094257 -0.12462464 -0.018528745 0.17097926
000180 b1 f6 30 be a0 c5 f7 bd ec 25 ad 3d 74 ba f0 bd
       -0.17281605 -0.12098241 0.08454499 -0.11754313
000190 35 29 1e be 98 a2 d4 3c 6e 07 0e 3e 5a 9d a4 bd
       -0.15445407 0.025956437 0.13870022 -0.08037825
0001a0 e3 ed b1 bd 34 4e b6 3d 16 69 11 be 40 d2 08 bb
       -0.086879514 0.08901635 -0.14200243 -0.0020877272
0001b0 18 4b d1 3c 38 02 b0 3d 1e 49 71 bd 16 3b 9b bd
       0.025548503 0.08594173 -0.05890762 -0.07579629
0001c0 bc f9 96 bd a9 72 38 be ad 24 83 bd 9f 73 8b bd
       -0.07371852 -0.1801249 -0.0640348 -0.06809162
0001d0 70 d3 2d bc e8 78 da bd ac 2e 98 bd 5c ca cc 3d
       -0.010609493 -0.10667592 -0.07430777 0.099995345
0001e0 47 53 e2 bd 79 c2 1c be f3 93 e8 3d ae 11 80 3d
       -0.1105104 -0.1530856 0.11356344 0.06253372
0001f0 8b 29 3e 3e 98 4f 4b 3e a4 40 e0 3d 90 0f 80 3c
       0.18570535 0.19854581 0.10949829 0.01563242
000200 90 59 f6 3d d4 f7 27 bd 86 d1 9f 3d e4 70 e6 3d
       0.120288014 -0.04100783 0.07803635 0.11252001
000210 36 60 36 be 00 5b 63 bb 6a f6 72 3e 30 1a 6b 3e
       -0.17810139 -0.0034691691 0.23726812 0.22959208
000220 8c 49 62 bd 7f aa 1b be 12 c2 a8 3d 0e 95 db bc
       -0.05524592 -0.15201758 0.08240141 -0.026804473
000230 84 33 1e 3e aa c8 95 bd c4 6b 2e 3e dd f3 bb bd
       0.15449339 -0.07313664 0.17033297 -0.091773726
000240 44 d2 b8 bd 49 ca ae bc 6f 19 be bd c5 d0 88 bd
       -0.0902448 -0.021336691 -0.09282195 -0.06680445
000250 0f 3b f6 bd 88 91 08 3e 22 f2 ba 3c a4 d4 3d bd
       -0.12022983 0.13336766 0.022820536 -0.046345368
000260 6c 46 12 3d 40 bb 2d 3c c6 97 69 bc a6 22 21 3e
       0.03571169 0.010603726 -0.014257377 0.15735874
000270 c3 50 bd bd 4c 6f e4 bd ed d5 c0 bd c0 a8 4f 3c
       -0.0924392 -0.11154041 -0.09415803 0.0126745105
000280 32 e1 2a be 49 e1 2b 3d 8c 9a 9e 3d ca 14 0b be
       -0.16687468 0.041962896 0.07744321 -0.13582149
000290 ea 1f e7 3d f5 f6 43 3c c1 e3 e3 3d 58 20 e9 3d
       0.11285384 0.011960735 0.11127425 0.11383122
0002a0 1b 00 4d 3d 5c e4 e2 bd a2 88 33 be e8 8b 99 3d
       0.05004893 -0.11078712 -0.1753259 0.07497388
0002b0 f7 8c 08 be 1e 73 8e bd cb 16 39 be 2c 9e 29 3d
       -0.13335024 -0.069555506 -0.18075101 0.04141061
0002c0 42 bb 01 be 6c 08 96 3d 83 17 91 3d 21 26 26 3e
       -0.1266909 0.07325825 0.07084563 0.16225483
0002d0 79 5d 0e 3d 84 91 32 3e 83 dc 29 3e 3d cd c3 bd
       0.03475711 0.17438322 0.16588025 -0.095606305
0002e0 5a c3 0c be b1 c5 12 be f6 24 60 bd a7 d9 ff 3d
       -0.13746396 -0.14333226 -0.05472275 0.12492686
0002f0 e0 ef 0f be 44 74 2e bd 14 4e 4d be 61 49 82 bd
       -0.14056349 -0.04259135 -0.20049316 -0.06361652
000300 d8 f0 2e 3e 74 46 70 3e 66 70 0f bb d4 8e 0b 3c
       0.17084062 0.23464376 -0.0021887063 0.00851794
000310 29 43 e2 3d 10 b2 f0 3c f3 51 04 3c ec 18 08 3e
       0.11047966 0.029381782 0.008076179 0.13290757
000320 2f 24 c0 bb 54 23 31 3e 28 b5 40 3e 94 e1 06 3e
       -0.0058636884 0.17298633 0.18819106 0.13171989
000330 d7 57 1a bd 44 b6 00 be f9 dd 2b 3d b4 d6 18 3e
       -0.037681427 -0.12569529 0.041959736 0.14925653
000340 67 3a 2a be ee 56 77 bd 04 20 f6 3c b2 f2 21 be
       -0.16623841 -0.060385637 0.030044563 -0.15815237
000350 40 2f 9d 3d 2f 05 07 be cb b2 9b 3d 48 49 a4 bc
       0.07675028 -0.13185571 0.076024614 -0.020054474
000360 7f f8 9f 3d cb 87 24 3e 80 b7 d4 3a 1c 69 fd 3d
       0.07811069 0.16067426 0.0016229004 0.12373564
000370 87 c2 37 3e 36 20 b7 bc b3 f8 48 3d 02 fa 1f 3e
       0.179453 -0.022354227 0.049065303 0.15622714
000380 6f 72 15 be 7f 4a 3c 3e c1 69 c7 3c 18 6f 15 3e
       -0.14594434 0.18387793 0.02434242 0.1459316
000390 e0 34 f4 3d 17 33 df bd c4 d7 de bc 0a 3e ec bd
       0.119241476 -0.108984165 -0.027202494 -0.115352705
0003a0 cf fc 88 3c 88 51 c1 3c 31 36 ce bd 72 3a 58 bd
       0.016722111 0.023598447 -0.1006893 -0.052790113
0003b0 05 89 e3 ba ec 03 0c 3e de 58 da bd 61 20 14 be
       -0.0017359561 0.13673371 -0.10661481 -0.14465477
0003c0 3d c0 fb 3c 1a 14 f8 3d c0 b0 98 3d b0 ce 71 3c
       0.030731315 0.12113209 0.074555874 0.014758751
0003d0 ae 62 6e bd d9 1c 02 3e 71 9d 05 be fb dc 0a be
       -0.058199577 0.12706317 -0.1304834 -0.1356086
0003e0 f8 ac 10 be 6c d3 9a 3d 2b 24 ba bd 02 1e 97 3d
       -0.14128482 0.07559857 -0.0908893 0.073787704
0003f0 84 8b f1 39 91 d8 48 bd 80 1e 79 bb cb fa 19 be
       0.0004607105 -0.04903466 -0.0038012564 -0.15037076

layers.2.bias f4 [20]
000000 7e 0e 2c 3e 46 6e 84 3d 83 e2 18 3d a0 2f c3 bb
       0.16802403 0.064663455 0.037325393 -0.005956605
000010 04 fa 2e 3e 3e 14 09 bd cd b6 9a 3c a1 4a a6 bc
       0.17087561 -0.03346657 0.018885994 -0.020299258
000020 66 63 24 be ca 2c 87 3d df 48 1a bd 80 eb 1d bb
       -0.16053542 0.0660034 -0.03766715 -0.0024096668
000030 cd 70 e0 3d 41 12 23 be 9c c8 64 3e 6e 11 b6 bd
       0.10959015 -0.15924932 0.22342151 -0.08890043
000040 c8 26 f0 3d 4d 5c f3 bd 0c 0d 09 be 80 f5 0c 3d
       0.11726147 -0.11882839 -0.13383883 0.034413815

layers.4.weight f4 [1, 20]
000000 60 ee 95 bc 4a 88 1d be 54 86 2a 3d 40 55 e9 bc
       -0.018302143 -0.15384021 0.04163201 -0.028483033
000010 d9 aa 8d 3e f8 d5 ad bc 6e da bc be 2a 75 8c 3d
       0.2766941 -0.021220192 -0.368854 0.06858285
000020 bd 1e 12 3e 64 9f 62 3e c6 5d 79 3d f0 ac 3e 3e
       0.14269538 0.22131115 0.060880445 0.18620658
000030 9e a0 a8 3e 79 38 ad 3b 79 3a ba be 83 30 08 3f
       0.3293504 0.005286273 -0.36372736 0.53199023
000040 96 17 ed bd 4c c6 cb be 6c 66 48 3e b0 c4 02 bf
       -0.11576764 -0.39799726 0.19570321 -0.5108137
